net_files/final/decentNet.pth (torch_old, 611712 bytes, 42 tensors)

conv_block1.conv1.weight f4 [64, 1, 3, 3]
0	0xbe077886	-0.1322957
1	0xbe23c484	-0.15992934
2	0xbe97d056	-0.29651135
3	0x3cd4d192	0.025978837
4	0x3ce21d60	0.027601898
5	0xbe54230a	-0.20716491
6	0x3d804118	0.06262416
7	0xbedea031	-0.4348159
8	0x3dbcb6fb	0.09214588
9	0x3e8e34c2	0.27774626
10	0x3e4ef0f8	0.2020911
11	0x3cdfbf06	0.027312767
12	0x3e560450	0.20900083
13	0x3e38d733	0.18050842
14	0xbe9da932	-0.30793148
15	0x3dde2100	0.10846138
16	0x3de87a26	0.11351423
17	0x3e40bae8	0.18821299
18	0xbbebd649	-0.0071971756
19	0x3e6d0838	0.23147666
20	0x3ee0feca	0.4394439
21	0x3e629f40	0.22131062
22	0x3d9dac79	0.07698912
23	0x3e94c952	0.29059845
24	0x3d8ed66a	0.0697449
25	0x3ea7b011	0.32751516
26	0xbd087222	-0.03331197
27	0x3dd86e65	0.10567931
28	0xbec39476	-0.38199204
29	0x3e1c0680	0.15236855
30	0xbe8522c0	-0.26003075
31	0x3e196d2a	0.14983049
32	0x3e9ca6e4	0.30596077
33	0xbe82c1ce	-0.25538486
34	0xbdfa84e6	-0.122323796
35	0x3d7e8bb9	0.06214497
36	0xbe254012	-0.16137722
37	0x3e630742	0.22170737
38	0xbe9fe58d	-0.3122982
39	0xbe292969	-0.16519703
40	0xbe8760b9	-0.2644098
41	0x3d88f077	0.0668649
42	0xbde70500	-0.112802505
43	0xbe95b284	-0.2923776
44	0xbe930ece	-0.28722233
45	0xbf2311f6	-0.6369928
46	0x3bbaaffa	0.0056972476
47	0x3d8c2352	0.06842674
48	0x3cb6ecf3	0.022329783
49	0x3d1d864d	0.038458157
50	0x3d9cd83d	0.07658432
51	0x3cee42b2	0.029084537
52	0x3d939a9b	0.07207223
53	0xbdcba93a	-0.09944387
54	0xbcd7801d	-0.026306206
55	0xbe347177	-0.17621408
56	0xbebc6c45	-0.36801353
57	0xbdff909a	-0.124787524
58	0xbe8b1be5	-0.2716972
59	0xbda55aa9	-0.08073933
60	0xbece7019	-0.403199
61	0xbe92567c	-0.28581607
62	0x3e11fe9f	0.14257286
63	0x3ec1fdb9	0.37888888
64	0x3e0103d1	0.12599112
65	0x3e73c672	0.2380617
66	0x3df52e33	0.119717024
67	0x3e3feda1	0.18742992
68	0xbe5b0162	-0.21387246
69	0xbc815e86	-0.015792143
70	0x3e73b5cd	0.2379982
71	0x3e80d19a	0.25159913
72	0xbe26e514	-0.16298324
73	0xbe9192b3	-0.28432235
74	0x3e700f1d	0.23443265
75	0xbe81fea6	-0.25389594
76	0x3e3b49f4	0.1828993
77	0xbe5a2cb9	-0.21306123
78	0xbdd0f298	-0.10202521
79	0xbec0fe0a	-0.37693816
80	0x3db927c6	0.09040789
81	0x3ed5803b	0.41699395
82	0xbea68b66	-0.32528228
83	0xbe8ff12d	-0.2811369
84	0x3de0a681	0.10969258
85	0xbeac8428	-0.33694577
86	0xbe4a879a	-0.1977829
87	0x3e9719c6	0.2951185
88	0x3eabee15	0.3358008
89	0xbdc96f71	-0.09835709
90	0x3eaeaf65	0.3411819
91	0x3e9cab95	0.30599657
92	0xbe8ee9fa	-0.27912885
93	0xbe479774	-0.19491369
94	0xbe25fc64	-0.1620956
95	0xbed49756	-0.4152171
96	0xbd24a944	-0.040200487
97	0x3e5ac51a	0.21364251
98	0xbed85939	-0.4225557
99	0x3e895187	0.26820013
100	0x3de8d4ab	0.11368688
101	0x3ea630b6	0.32459038
102	0xbd8aeaad	-0.06783042
103	0x3c2ddcad	0.010611695
104	0x3e8c779e	0.2743501
105	0x3e692626	0.22768459
106	0x3e8cf79d	0.27532664
107	0x3e3548ca	0.17703548
108	0x3e86026d	0.26173726
109	0x3b02b2af	0.001994293
110	0x3e796daf	0.24358247
111	0xbe8d16f4	-0.27556574
112	0x3e482578	0.19545543
113	0xbe9dcd16	-0.3082053
114	0x3e3437a1	0.17599346
115	0xbdc6dcc5	-0.09710077
116	0x3e426678	0.18984401
117	0x3e7a22a8	0.24427283
118	0xbdc1b277	-0.094578676
119	0xbe819ee4	-0.25316536
120	0xbd452b60	-0.04813707
121	0xbe522821	-0.2052312
122	0xbeb022e3	-0.34401616
123	0xbe942998	-0.28937984
124	0xbde0801e	-0.109619364
125	0x3e8fca85	0.28084198
126	0x3e5ac267	0.21363221
127	0x3a316797	0.000676745
128	0x3eae9a42	0.34102064
129	0x3ea74e3a	0.3267687
130	0x3ea0c953	0.31403598
131	0x3d0b0824	0.03394331
132	0xbc9bdcf6	-0.01902626
133	0x3eabe157	0.33570358
134	0x3e5ef350	0.21772504
135	0xbe917fa7	-0.28417704
136	0x3d2fbf16	0.042906843
137	0x3dbc9c53	0.09209504
138	0xbdcd1a38	-0.100147665
139	0xbdabfd8c	-0.083979696
140	0x3e6a9e55	0.22911961
141	0x3c411934	0.011785794
142	0x3dd2eb20	0.10298753
143	0xbeb16506	-0.34647387
144	0xbd4b09c7	-0.04956987
145	0xbd62ea70	-0.05539936
146	0x3f113709	0.567246
147	0xbd82a571	-0.06379212
148	0xbc04072b	-0.00805835
149	0xbc6be0ec	-0.014396887
150	0xbcc6b5df	-0.024256645
151	0xbc4132e5	-0.011791919
152	0x3e85e4a6	0.26151007
153	0xbd8c6e01	-0.06856919
154	0x3ea77709	0.32708004
155	0x3e35e8cc	0.17764586
156	0x3e1b36e5	0.1515766
157	0xbd56073d	-0.052252997
158	0xbc38cb29	-0.011278906
159	0x3e64411c	0.22290462
160	0xbe24e728	-0.16103804
161	0x3e8285c1	0.2549267
162	0x3e0feb8e	0.140547
163	0xbea96fe0	-0.33093166
164	0x3c1911a7	0.009342588
165	0x3c9a1861	0.018810453
166	0xbdc45679	-0.09586806
167	0x3e850cbf	0.25986287
168	0x3e8a4a57	0.27009842
169	0xbdbd998d	-0.09257803
170	0x3e8bc6e8	0.2730019
171	0xbdbe216a	-0.09283717
172	0x3de6342d	0.112404205
173	0x3df5df88	0.12005526
174	0xbe89ae7f	-0.26890942
175	0x3a052646	0.00050792505
176	0x3e32ab40	0.17448139
177	0xbe7f1270	-0.24909377
178	0xbea28712	-0.31743675
179	0xbd41b837	-0.04729482
180	0x3e843267	0.25819704
181	0xbd7f3082	-0.06230212
182	0xbe829364	-0.25503075
183	0x3ea7849f	0.3271837
184	0x3eaff4ee	0.34366554
185	0x3e81b938	0.25336623
186	0x3eae5929	0.340524
187	0xbeb8ca64	-0.36091912
188	0xbe803347	-0.25039122
189	0xbe41851a	-0.1889843
190	0xbe98ffe9	-0.29882744
191	0x3dba1aa2	0.09087111
192	0x3da9127c	0.08255479
193	0xbe34137d	-0.17585559
194	0xbe0610f3	-0.13092403
195	0xbe51dfd5	-0.20495541
196	0xbec0de3f	-0.3766956
197	0x3d421ac3	0.047388803
198	0xbe0d3871	-0.13791062
199	0xbe33dbc0	-0.17564297
200	0x3eb4498e	0.35212368
201	0xbe9b3dc9	-0.30320576
202	0x3e48cf96	0.19610438
203	0x3dcebb37	0.10094302
204	0x3e8b7338	0.27236342
205	0x3d59e6c0	0.053198576
206	0x3e6b2a4c	0.22965354
207	0x3a81a43c	0.0009890865
208	0x3f367163	0.71266764
209	0xbcac14e2	-0.021006051
210	0xbb1d473c	-0.0023998758
211	0x3d70e777	0.058814492
212	0x3be23dbd	0.0069043324
213	0x3d8c7b82	0.06859495
214	0x3d76597f	0.060143944
215	0xbd944400	-0.072395325
216	0xbe957509	-0.29190853
217	0xbda9606a	-0.08270343
218	0x3e293f36	0.1652802
219	0xbe9b5d61	-0.3034468
220	0x3d64bb75	0.055842835
221	0xbeca6b10	-0.39534807
222	0x3d3051b8	0.043046683
223	0xbcb71549	-0.022349017
224	0xbea0843e	-0.31350893
225	0x3ebbce6a	0.3668092
226	0xbe834dfd	-0.25645438
227	0x3ea70f6a	0.32628947
228	0x3b9d0ae2	0.004792557
229	0xbe2b8c27	-0.16752683
230	0xbe0e7d93	-0.1391509
231	0xbe6fc787	-0.23415957
232	0xbc89be8e	-0.016814496
233	0xbd08e764	-0.033423796
234	0x3edb0739	0.42778948
235	0x3e825127	0.2545254
236	0x3e2ef695	0.17086251
237	0x3e3ae28e	0.18250486
238	0xbd127e49	-0.035764966
239	0x3e7830ab	0.24237315
240	0xbde84488	-0.11341196
241	0x3e8230b9	0.25427797
242	0xbd5491db	-0.05189691
243	0xbee56e03	-0.44810495
244	0xbe14a4d2	-0.14515999
245	0x3d2a6824	0.041603222
246	0xbe3c2eff	-0.18377303
247	0x3d4ff72b	0.050772827
248	0xbef54f7b	-0.479122
249	0x3e496cb0	0.19670367
250	0x3e8fb46f	0.28067347
251	0x3debb89d	0.115098216
252	0x3e7f832d	0.24952383
253	0x3db47a2a	0.088123634
254	0xbedae71b	-0.42754444
255	0x3d0534ab	0.03252093

conv_block1.conv1.bias f4 [64]
0	0xbe338053	-0.1752942
1	0xbe5099fa	-0.20371237
2	0x3e8eb2b9	0.2787073
3	0xbe4e2683	-0.20131879
4	0xbdf150e3	-0.11783006
5	0xbed6a0b1	-0.41919473
6	0xbdcb7835	-0.09935037
7	0x3e3740c8	0.17895806
8	0xbecae8ab	-0.39630637
9	0xbea4ea2d	-0.32209912
10	0x3e628cd6	0.22124037
11	0xbdf62403	-0.120185874
12	0xbe8c1c62	-0.27365404
13	0xbcc5dc0e	-0.024152782
14	0x3da68e8f	0.0813266
15	0x3ea48136	0.3212983
16	0xbce152e2	-0.027505342
17	0x3bc2520a	0.00593019
18	0xbecd16cb	-0.40056452
19	0xbdf76f65	-0.12081794
20	0x3cf26462	0.029588882
21	0x3e7fc713	0.24978285
22	0xbd9e11bc	-0.07718226
23	0xbe2d3c16	-0.16917452
24	0x3dac0d8d	0.08401022
25	0xbe51c7de	-0.204864
26	0xbe0cce1c	-0.137505
27	0xbe5fc259	-0.21851481
28	0x3d8a2d8c	0.067469686
29	0x3e8f0d83	0.27939996
30	0x3e1e270d	0.15444584
31	0xbe4c2d8d	-0.19939251
32	0x3e62f778	0.22164714
33	0x3d81087a	0.06300445
34	0xbd3d998e	-0.04628902
35	0xbb3089d5	-0.0026937623
36	0xbe967be1	-0.29391387
37	0x3d118f6a	0.03553716
38	0xbe71059e	-0.23537299
39	0xbe3a0296	-0.18165049
40	0x3d14ef74	0.036361173
41	0xbe140811	-0.14456202
42	0x3e44da03	0.1922379
43	0x3e7a07d9	0.24417056
44	0xbe9ffe5c	-0.31248748
45	0xbcaeb2a2	-0.021325413
46	0xbddc666a	-0.107617214
47	0x3cf53720	0.029933512
48	0xbe59f12a	-0.21283403
49	0xbe25591a	-0.16147271
50	0xbe8d8e40	-0.2764759
51	0xbe8255a5	-0.25455967
52	0x3e79d9ae	0.24399444
53	0x3e8954cc	0.26822507
54	0x3ea4d97c	0.32197177
55	0xbc81f424	-0.015863486
56	0x3e24dd42	0.16100028
57	0xbd45cfd2	-0.048293896
58	0xbe766710	-0.24062753
59	0x3d27ac15	0.040935595
60	0x3c99829e	0.018739041
61	0xbd699b8b	-0.057033103
62	0x3e7ace33	0.24492721
63	0xbe5d4b6a	-0.216108

conv_block1.bn1.weight f4 [64]
0	0x3f6db80b	0.9285895
1	0x3f64b947	0.8934521
2	0x3f8ac083	1.084
3	0x3f3cf14b	0.73805684
4	0x3f6621da	0.89895403
5	0x3f95c632	1.170111
6	0x3f7ebb5f	0.99504656
7	0x3f4ddbfc	0.80413795
8	0x3f64e277	0.8940806
9	0x3f3e903d	0.7443884
10	0x3f662de7	0.8991379
11	0x3f861996	1.0476558
12	0x3f613724	0.8797476
13	0x3f552f16	0.8327497
14	0x3f821414	1.0162377
15	0x3f5ce9a1	0.8629399
16	0x3f886146	1.0654685
17	0x3f77cf07	0.96800274
18	0x3f62a14a	0.8852736
19	0x3f4295c7	0.7600979
20	0x3f72c4f8	0.948318
21	0x3f847008	1.0346689
22	0x3f483337	0.7820315
23	0x3f921c0d	1.141481
24	0x3f843ce6	1.0331085
25	0x3f504721	0.81358534
26	0x3f77e161	0.96828276
27	0x3f55d89e	0.83533657
28	0x3f6bd0e6	0.9211563
29	0x3f52e4d4	0.82380414
30	0x3f691b8b	0.9105765
31	0x3f87ce83	1.0609897
32	0x3f455520	0.77083015
33	0x3f808950	1.0041904
34	0x3f5d59ee	0.86465347
35	0x3f5b36c2	0.8563043
36	0x3f70e91d	0.941057
37	0x3f4a75e2	0.79086125
38	0x3f5bd3a1	0.85869795
39	0x3f4e29bb	0.80532426
40	0x3f64fdee	0.89449966
41	0x3f7a3b67	0.9774689
42	0x3f591241	0.8479348
43	0x3f9d4422	1.2286417
44	0x3f7b8013	0.982423
45	0x3f472d02	0.7780305
46	0x3f60b361	0.8777371
47	0x3f5ce157	0.8628134
48	0x3f6a7558	0.915853
49	0x3f65a85b	0.89710015
50	0x3f4b3b19	0.7938705
51	0x3f4b1805	0.79333526
52	0x3f47235f	0.77788347
53	0x3f8c9df8	1.0985708
54	0x3f681fc8	0.90673494
55	0x3f6a23a8	0.9146066
56	0x3f6741ae	0.90334594
57	0x3f6b882b	0.9200465
58	0x3f4ebfac	0.8076122
59	0x3f6fb921	0.9364186
60	0x3f7c4c8a	0.9855429
61	0x3f6ac3ad	0.9170483
62	0x3f53c92f	0.82728857
63	0x3f42e790	0.76134586

conv_block1.bn1.bias f4 [64]
0	0xbe6a7b40	-0.22898579
1	0xbdc4e417	-0.09613817
2	0xbddc3124	-0.1075156
3	0xbe708d0d	-0.23491307
4	0xbe0f25da	-0.13979283
5	0xbe55446f	-0.20826887
6	0xbe932bcc	-0.28744352
7	0xbe7f2992	-0.24918202
8	0xbe954fd6	-0.29162472
9	0xbe95f3be	-0.29287523
10	0xbeb24935	-0.34821478
11	0xbdb5937b	-0.0886602
12	0xbe50d2a6	-0.20392856
13	0xbe478f6b	-0.19488303
14	0x3d2e42ae	0.04254406
15	0xbe972273	-0.2951847
16	0xbe72d34b	-0.23713414
17	0xbeb1ea4f	-0.34749076
18	0xbec2d476	-0.3805272
19	0xbe84368f	-0.25822875
20	0xbeafb082	-0.34314352
21	0xbeb08872	-0.344791
22	0xbe4b3451	-0.19844176
23	0xbe22e0a2	-0.15906003
24	0xbe14172b	-0.14461963
25	0xbec22129	-0.37915924
26	0xbda4efb4	-0.08053532
27	0xbed3abcb	-0.41342005
28	0xbea0f6ef	-0.31438395
29	0xbedf5e13	-0.4362646
30	0xbe77599b	-0.24155276
31	0xbe7feabe	-0.24991891
32	0xbe42ae6a	-0.19011846
33	0xbea86f5e	-0.32897466
34	0xbecba1e6	-0.39771956
35	0xbe9c64cd	-0.30545655
36	0xbe96e756	-0.2947337
37	0xbe8fb3c7	-0.28066847
38	0xbeb0837a	-0.3447531
39	0xbec757ce	-0.38934177
40	0xbdae5292	-0.08511843
41	0xbe19cefe	-0.15020368
42	0xbe5e5dda	-0.21715489
43	0xbe4afe0c	-0.19823474
44	0xbe9e50de	-0.30921072
45	0xbe893527	-0.26798365
46	0xbe7cc3ff	-0.24684142
47	0xbeac8263	-0.33693227
48	0xbe6e77e9	-0.2328793
49	0xbe85bcfe	-0.26120752
50	0xbea74397	-0.32668754
51	0xbe46a18a	-0.1939756
52	0xbecf9f58	-0.40551257
53	0xbe76b147	-0.24091063
54	0xbe8ba8d9	-0.27277258
55	0xbea30ccc	-0.318457
56	0xbe4fb65c	-0.20284408
57	0xbe2c7606	-0.16841897
58	0xbe568413	-0.2094882
59	0xbdfc8724	-0.123304635
60	0xbe64e280	-0.22352028
61	0xbe93954d	-0.28824845
62	0xbd96dca8	-0.073663056
63	0xbe9e33b5	-0.30898824

conv_block1.bn1.running_mean f4 [64]
0	0xbe14a253	-0.14515047
1	0xbe6c8a23	-0.2309957
2	0x3e6c5870	0.23080611
3	0xbe48b2bd	-0.19599433
4	0xbdaafb1f	-0.08348679
5	0xbed300a9	-0.4121144
6	0xbd5188c5	-0.051155824
7	0x3e13be16	0.14427981
8	0xbebdca28	-0.37068295
9	0xbe9d6922	-0.30744272
10	0x3e762611	0.24037959
11	0xbe23ff47	-0.1601535
12	0xbe8f73af	-0.28017947
13	0x3bd4aac3	0.006490083
14	0x3cf122a8	0.02943547
15	0x3ea6fe5f	0.32615945
16	0xbd1e6e04	-0.038679138
17	0xbc70f2d9	-0.014706337
18	0xbece6be0	-0.40316677
19	0xbdde4b6f	-0.108542316
20	0x3b959566	0.004564929
21	0x3e91ce90	0.28477907
22	0xbdb86727	-0.0900405
23	0xbe4c9da0	-0.19982004
24	0x3deac96f	0.11464202
25	0xbe45cef4	-0.19317228
26	0xbe347dca	-0.1762611
27	0xbe4c4dac	-0.19951504
28	0x3d897aec	0.067128986
29	0x3e9c7aeb	0.3056253
30	0x3dff41eb	0.12463745
31	0xbe4174c0	-0.18892193
32	0x3e5d539e	0.21613929
33	0x3d854249	0.065067835
34	0xbd7b4aac	-0.06135051
35	0x3d0512eb	0.032488745
36	0xbea2814a	-0.31739265
37	0x3cfeb9f6	0.031094532
38	0xbe794365	-0.24342115
39	0xbe241f98	-0.16027677
40	0x3c04cf6e	0.008106096
41	0xbded32f7	-0.115819864
42	0x3e353270	0.17695022
43	0x3e5edb18	0.21763265
44	0xbe96efe1	-0.29479888
45	0x3abe1acb	0.0014503835
46	0xbdaee076	-0.08538906
47	0x3d0ca866	0.034340285
48	0xbe6be98f	-0.23038314
49	0xbe2b3cf0	-0.16722465
50	0xbe92241c	-0.28543174
51	0xbe7fc150	-0.24976087
52	0x3e6f52e2	0.23371461
53	0x3e8709a9	0.26374558
54	0x3e92adc9	0.28648213
55	0x3a26feb8	0.00063703535
56	0x3e233de6	0.15941581
57	0xbda225a5	-0.079173364
58	0xbe815077	-0.25256702
59	0x3d7d2d1f	0.06181061
60	0x3d1ddb18	0.038539022
61	0xbcf746f6	-0.030185204
62	0x3e53adf6	0.2067183
63	0xbe4a6154	-0.1976369

conv_block1.bn1.running_var f4 [64]
0	0x3dabec98	0.08394736
1	0x3d8ab077	0.06771939
2	0x3da4bb07	0.08043485
3	0x3dec4b33	0.115377806
4	0x3dc5e24c	0.09662303
5	0x3da6fd12	0.08153738
6	0x3da325a9	0.079661675
7	0x3d9d25b4	0.07673207
8	0x3e083f31	0.13305356
9	0x3e25ed91	0.16203906
10	0x3e1a619f	0.15076302
11	0x3d6d84f0	0.057988107
12	0x3dfb2e08	0.12264639
13	0x3dba419c	0.09094545
14	0x3db85dd3	0.090022705
15	0x3d874f9a	0.0660698
16	0x3d9a6a06	0.075397536
17	0x3d8d6005	0.0690308
18	0x3d9b6e80	0.075894356
19	0x3d690ee8	0.05689898
20	0x3e2b4149	0.16724123
21	0x3d93c90f	0.07216083
22	0x3dd29c06	0.10283665
23	0x3e022d49	0.12712587
24	0x3dbb7481	0.09153081
25	0x3dc972c8	0.09836346
26	0x3daa57fe	0.083175644
27	0x3e077e14	0.13231689
28	0x3df3af03	0.11898615
29	0x3dec219f	0.1152985
30	0x3da139d4	0.07872358
31	0x3dc03863	0.09385755
32	0x3e096549	0.13417543
33	0x3dde91e4	0.1086767
34	0x3de1e142	0.11029293
35	0x3ddbd27a	0.107335046
36	0x3d5c189f	0.053734418
37	0x3db9b0ce	0.09066926
38	0x3e130a44	0.14359385
39	0x3e06219c	0.13098758
40	0x3d16286d	0.036659647
41	0x3d62bb75	0.055354554
42	0x3da7e255	0.08197466
43	0x3e58f2ca	0.21186367
44	0x3dfce55d	0.12348435
45	0x3da95a51	0.082691796
46	0x3df5e74a	0.120070055
47	0x3dbabb5b	0.091177665
48	0x3db4cf84	0.08828643
49	0x3db70118	0.089357555
50	0x3d6bfa6f	0.05761188
51	0x3dc8743a	0.097877935
52	0x3df17480	0.11789799
53	0x3d87bc1e	0.066276774
54	0x3dc1fadc	0.09471676
55	0x3e139d22	0.1441541
56	0x3dd790d9	0.105256744
57	0x3d9daaea	0.07698615
58	0x3db592d0	0.08865893
59	0x3da91a26	0.082569405
60	0x3d9c8334	0.076422125
61	0x3dbe666f	0.092968814
62	0x3db010fa	0.08596988
63	0x3d60317e	0.0547347

res_block1.conv1.weight f4 [64, 64, 3, 3]
0	0xbdeaf587	-0.11472612
1	0x3db2885a	0.08717413
2	0x3d0a3264	0.033739462
3	0xbbd03c9b	-0.006354881
4	0x3e0881c9	0.13330759
5	0x3e1d709e	0.15374991
6	0x3d9b6d77	0.07589238
7	0x3d1e9bc6	0.038722776
8	0x3d47b6ea	0.048758425
9	0x3d619906	0.055077575
10	0x3d8f5ef8	0.07000536
11	0xbd94d0b0	-0.072663665
12	0x3d809eb0	0.06280267
13	0xbce20997	-0.027592463
14	0x3c16cbf5	0.009203901
15	0x3c7008ca	0.014650533
16	0xbc677973	-0.014128077
17	0xbdef7102	-0.116914764
18	0xbdbfce92	-0.09365572
19	0xbe292281	-0.16517068
20	0x3dd3b0d4	0.10336462
21	0x3d400bd5	0.046886284
22	0xba911372	-0.0011068417
23	0x3d6211a0	0.05519259
24	0x3cda83cb	0.026674172
25	0xbd3ab8d6	-0.04558643
26	0xbd9bee50	-0.07613814
27	0x3caf5ddc	0.02140706
28	0xbd18ded3	-0.037321877
29	0xbd9029d1	-0.07039226
30	0x3cdea76c	0.027179442
31	0xbcd89902	-0.026440147
32	0xbde98a89	-0.114033766
33	0xbd94f0c5	-0.07272486
34	0x3ded23a4	0.115790635
35	0xbd1006cf	-0.035162743
36	0xbd4d43bb	-0.05011342
37	0xbc053543	-0.008130374
38	0x3dc86e10	0.09786618
39	0x3c4cac04	0.012492184
40	0x3c790930	0.015199944
41	0xbc893204	-0.016747482
42	0x3d6048c1	0.054756884
43	0xbd2801cd	-0.041017342
44	0x3e104d98	0.140921
45	0x3c05007c	0.008117791
46	0xbd120c16	-0.035656057
47	0xbd4da513	-0.050206255
48	0xbe13525b	-0.14386885
49	0x3c6c9f5c	0.014442291
50	0x3db3c353	0.087774895
51	0xbe0d9fbf	-0.1383047
52	0xbe089f5d	-0.13342042
53	0xbda27a85	-0.07933525
54	0x3bcc0609	0.0062263054
55	0x3d83e384	0.064398795
56	0xbd299d3d	-0.04140972
57	0xbdb7e1f2	-0.089786425
58	0x3e343b7a	0.17600814
59	0x3e10280d	0.14077778
60	0x3e1c3147	0.15253173
61	0x3e1a890e	0.15091345
62	0x3db13acc	0.08653793
63	0x3dab31fc	0.08359143
64	0xbd685181	-0.056718353
65	0xbdbf1e47	-0.09331947
66	0xbe204e2e	-0.15654823
67	0xbdc2cd61	-0.09511829
68	0x3d9cd30a	0.0765744
69	0x3d325e73	0.043547105
70	0xbdb07ca1	-0.08617521
71	0xbd2dc90d	-0.042428065
72	0xbd30cbd3	-0.043163132
73	0x3cdd89df	0.027043281
74	0xbd9a41d3	-0.07532086
75	0xbd656537	-0.05600473
76	0xbe18ab99	-0.1490921
77	0xbcd79dcd	-0.026320362
78	0x3c24b34a	0.0100525115
79	0xbdd313ae	-0.10306488
80	0x3d83f92d	0.06444011
81	0x3c0e23b3	0.008675504
82	0x3d63f80c	0.055656478
83	0xbd58cbf5	-0.052928884
84	0xbe576e51	-0.21038176
85	0x3e035927	0.12826978
86	0x3ccc130c	0.024911426
87	0xbc681a8a	-0.014166484
88	0xbbf04a83	-0.0073331012
89	0xbd327cc4	-0.043576017
90	0xbdceab3b	-0.10091253
91	0xbd97778e	-0.0739585
92	0xbe0607e7	-0.13088952
93	0x3da4af0a	0.080411986
94	0x3dc5036d	0.09619794
95	0xbdde7229	-0.10861618
96	0xbd734df9	-0.059400532
97	0x3cbe48bf	0.023228047
98	0xbe0c151e	-0.1367993
99	0xbd0d6571	-0.03452057
100	0xbd5cc834	-0.053901866
101	0xbc68eb9c	-0.01421633
102	0x3ca79bac	0.020459972
103	0x3da679ae	0.08128677
104	0xbde1add1	-0.11019481
105	0xbd143221	-0.03618062
106	0xbe156714	-0.14590102
107	0xbe73e94e	-0.23819467
108	0xbc11275a	-0.00885948
109	0x3d65edea	0.056135096
110	0x3d4e0b9d	0.050304044
111	0x3b996582	0.00468129
112	0xbd4bb860	-0.04973638
113	0x3e0b4196	0.13599238
114	0x3d61eaef	0.05515569
115	0xbc77277a	-0.015085096
116	0xbdc0bab6	-0.09410612
117	0xbda07983	-0.078356765
118	0xbd83ccba	-0.06435533
119	0xbd324aeb	-0.04352848
120	0xbd891b88	-0.06694704
121	0x3dfb22ea	0.12262519
122	0x3dc2ebc2	0.095176235
123	0xbce47c20	-0.027891219
124	0x3d187851	0.037224118
125	0x3c1b2b54	0.009470779
126	0x3e2057a5	0.15658434
127	0x3b4700f5	0.003036556
128	0xbdfc75cb	-0.12327155
129	0xbd290415	-0.04126366
130	0xbe1f1dc8	-0.15538704
131	0xbbe05899	-0.006846499
132	0xbd7faef9	-0.062422726
133	0xbe79a38b	-0.24378793
134	0xbd899f55	-0.06719843
135	0xbd8448fe	-0.06459235
136	0xbe13bfe0	-0.14428663
137	0x3dd409ef	0.10353457
138	0xbd96979a	-0.073531345
139	0xbd952563	-0.072825216
140	0x3d8b387d	0.06797884
141	0xbccdd385	-0.025125274
142	0xbdb459ad	-0.08806167
143	0xbb3b967b	-0.002862363
144	0xbe02e8e8	-0.12784159
145	0xbd5d2eb9	-0.053999636
146	0xbe29733e	-0.16547868
147	0x3cfb46fc	0.030673496
148	0xba843960	-0.00100879
149	0x3c4c2035	0.012458851
150	0xbd3535bc	-0.0442407
151	0xbdbf2d6b	-0.09334835
152	0xbd00b413	-0.031421732
153	0xbe6b049c	-0.22950977
154	0x3b49e614	0.0030807303
155	0xbd52dad0	-0.051478207
156	0x3d05ad69	0.03263608
157	0xbd6bff7e	-0.057616703
158	0xbd043195	-0.032273848
159	0x3db9a128	0.09063941
160	0xbe4c5654	-0.19954807
161	0xbe1bd75c	-0.15218872
162	0xbca0a899	-0.019611644
163	0xbe08fa9a	-0.13376847
164	0xbdea8978	-0.11452001
165	0xbce231f7	-0.027611716
166	0x3e1489df	0.14505719
167	0xbe497dcf	-0.19676898
168	0xbde89d80	-0.11358166
169	0x3e1ddecd	0.15417023
170	0xbda563cf	-0.080756776
171	0x3c59889e	0.013277201
172	0xbe32f878	-0.17477596
173	0xbdafe575	-0.08588687
174	0xbe1605a1	-0.14650585
175	0xbcf7d4cc	-0.030252837
176	0xbdd652d9	-0.10465021
177	0x3e53dcc0	0.20689678
178	0x3d77d72d	0.060507942
179	0x3de118db	0.10991069
180	0x3e06d87d	0.13168521
181	0xbe5e76cd	-0.21725006
182	0x3d4655a7	0.04842153
183	0xbd7b252f	-0.061314758
184	0x3c2e4ec2	0.0106388945
185	0x3bbd1893	0.0057707517
186	0xbda7c0e8	-0.08191091
187	0xbdbc1486	-0.09183602
188	0xbd5dd787	-0.05416062
189	0x3d9e5112	0.07730307
190	0x3e2905fc	0.16506189
191	0xbe16992e	-0.14706871
192	0x3ceb62a5	0.02873356
193	0x3df47320	0.11936021
194	0x3c88a5a0	0.016680539
195	0xbd2cc39a	-0.042178728
196	0x3bf23738	0.0073918365
197	0xbe245e17	-0.16051517
198	0xbe51fa6c	-0.20505685
199	0xbd2ff85a	-0.042961456
200	0xbe0de5a6	-0.13857135
201	0xbd8940ee	-0.067018375
202	0x3c626c67	0.01381979
203	0xbd5403c6	-0.05176141
204	0xbd5e44d4	-0.05426486
205	0x3d4d6a34	0.05015011
206	0xbd27a050	-0.04092437
207	0xbe008751	-0.12551619
208	0xbe3f4ea0	-0.18682337
209	0xbe439fbf	-0.19103907
210	0x3e0510b3	0.12994651
211	0x3d027fe3	0.031860244
212	0x3d65e824	0.05612959
213	0x3d0b97ae	0.0340802
214	0xbdbe82e3	-0.093023084
215	0xbdf04147	-0.11731201
216	0x3d1eb23c	0.038744196
217	0xbd19853d	-0.03748058
218	0xbd4414db	-0.04787145
219	0xbde5fe57	-0.11230152
220	0xbbfcebe7	-0.0077185514
221	0xbba79875	-0.00511461
222	0x3c3a9bd1	0.011389689
223	0x3dc8bde5	0.098018445
224	0x3d8c1a7f	0.06840991
225	0xbe8b70bd	-0.2723445
226	0xbe1d95f7	-0.15389238
227	0xbb285b8b	-0.002568933
228	0xbcf107a0	-0.029422581
229	0x3e3d05ab	0.18459193
230	0x3d8a5b53	0.067557
231	0xbe9a9e1e	-0.3019876
232	0xbc19990d	-0.009374869
233	0x3c2d2edc	0.010570254
234	0xbe08943a	-0.13337794
235	0xbe64c85d	-0.22342058
236	0xbb374ec0	-0.0027970523
237	0x3dbd276a	0.09236033
238	0x3ca82241	0.020524146
239	0xbdfe45be	-0.12415646
240	0xbe1b96eb	-0.1519429
241	0x3ddd2e88	0.10799891
242	0xbe6a518a	-0.22882667
243	0x3e0a6508	0.13515103
244	0x3d79b083	0.06095935
245	0x3ce99e8c	0.028517984
246	0xbe2f29c1	-0.17105772
247	0xbe1ed49b	-0.1551079
248	0x3e0940e2	0.13403657
249	0xbd4fe7ba	-0.0507581
250	0x3e12d042	0.14337257
251	0xbd74400e	-0.0596314
252	0xbe54f818	-0.20797765
253	0xbc1b6ba5	-0.009486114
254	0x3d119dfa	0.03555105
255	0x3cbf36e4	0.023341604

res_block1.conv1.bias f4 [64]
0	0x3b4dc426	0.003139743
1	0x3ce0894e	0.027409222
2	0x3d075b9b	0.033046346
3	0xbcc20b50	-0.023687035
4	0xbbec0c00	-0.007203579
5	0xbb035dcd	-0.0020044923
6	0x3c6cd6fe	0.014455555
7	0xbc96682d	-0.018360222
8	0x3cf6fdca	0.030150313
9	0xbcc1cbca	-0.023656745
10	0xbd4d5961	-0.050134066
11	0x3bd6ab67	0.0065511945
12	0xba5a416e	-0.000832579
13	0xbd3de8f7	-0.04636475
14	0x3c4dcaea	0.0125605855
15	0x3ca53690	0.020167619
16	0x3cf0638d	0.029344345
17	0xbb9859a2	-0.004649357
18	0xba96f11a	-0.0011515946
19	0x3c2a4651	0.010392741
20	0xbd2166fd	-0.039404858
21	0x3c3ce606	0.011529451
22	0xbd3069c6	-0.043069623
23	0x3c93c3de	0.018037733
24	0x3d0fa33c	0.03506778
25	0x3d380196	0.044923387
26	0x3cdc66a2	0.026904408
27	0xbcfefc2d	-0.031126106
28	0x3cef5dbc	0.0292195
29	0xb9ab10aa	-0.00032628077
30	0x3d14c691	0.03632218
31	0xbd181880	-0.03713274
32	0xbccc11a1	-0.02491075
33	0xbcad0d88	-0.021124616
34	0xbc03ef26	-0.008052623
35	0x3d196e1d	0.037458528
36	0x3bafe35a	0.0053676786
37	0x3cddafcd	0.027061367
38	0x3c1be8de	0.009515969
39	0xb96e633b	-0.00022734415
40	0x3c88ef75	0.016715745
41	0xbd30dba2	-0.04317821
42	0x3d4369c5	0.04770829
43	0xbd3853e5	-0.045001883
44	0xbd1e0525	-0.038579125
45	0xbc7c7935	-0.015409757
46	0x3c8dedbc	0.017325275
47	0x3d56e012	0.052459784
48	0xbd2a9cd1	-0.041653458
49	0xbc087133	-0.00832777
50	0x3d04d934	0.032433704
51	0x3d0aabda	0.033855297
52	0xbd17ffa2	-0.037109025
53	0x3b976257	0.0046198773
54	0xbc6d2ec7	-0.014476485
55	0x3cf93609	0.030421274
56	0x3cd3184b	0.02576842
57	0xbcef2cef	-0.02919623
58	0xbc12891d	-0.008943823
59	0xbb8a659b	-0.004223538
60	0xbcc7b802	-0.024379734
61	0x3cc079c6	0.023495566
62	0xbd2edc62	-0.042690642
63	0x3cdb5a90	0.026776582

res_block1.bn1.weight f4 [64]
0	0x3f65f6c5	0.89829665
1	0x3f758ab5	0.95914775
2	0x3f80a764	1.0051084
3	0x3f6312ac	0.88700366
4	0x3fa05f1c	1.2529025
5	0x3f6e832f	0.9316892
6	0x3f8934cf	1.0719241
7	0x3f858d29	1.0433704
8	0x3f431bd5	0.76214343
9	0x3f734568	0.9502778
10	0x3f7865ea	0.9703051
11	0x3f661dc2	0.89889157
12	0x3f5e49b6	0.86831224
13	0x3f7bb0db	0.98316735
14	0x3f4161b8	0.7553973
15	0x3f809638	1.0045843
16	0x3f536a8b	0.82584447
17	0x3f9e00d7	1.2344006
18	0x3f80ccbc	1.006248
19	0x3f5988cb	0.84974355
20	0x3f641cb0	0.89106274
21	0x3f847383	1.0347751
22	0x3f8ab8c7	1.083764
23	0x3f874b96	1.0569942
24	0x3f709bab	0.9398753
25	0x3f811989	1.0085918
26	0x3f55ffa3	0.83593196
27	0x3f89c96a	1.0764592
28	0x3f8343a3	1.0255016
29	0x3f71c996	0.9444822
30	0x3f79530c	0.97392344
31	0x3f86c98d	1.0530258
32	0x3f6e57ed	0.93102914
33	0x3f70c8df	0.94056505
34	0x3f6263b0	0.8843336
35	0x3fa98301	1.3243104
36	0x3f7c4803	0.9854738
37	0x3f5e96fe	0.86949146
38	0x3f812fd8	1.0092726
39	0x3f656236	0.89602983
40	0x3f80fe6f	1.0077647
41	0x3f443a33	0.76651305
42	0x3f4d81e0	0.802763
43	0x3f98d0a9	1.1938678
44	0x3f894c85	1.0726477
45	0x3f746fdc	0.95483184
46	0x3f780f33	0.9689819
47	0x3f63c96d	0.88979226
48	0x3f5bbe64	0.8583739
49	0x3f83d24e	1.0298555
50	0x3f662587	0.8990101
51	0x3f79eaa3	0.9762365
52	0x3f554bdf	0.83318895
53	0x3f68d1f3	0.9094536
54	0x3f7698d4	0.9632695
55	0x3f9c9f5f	1.2236136
56	0x3f86f99d	1.0544926
57	0x3f4ed000	0.8078613
58	0x3f5911bc	0.84792686
59	0x3f80744c	1.0035491
60	0x3f4c56bc	0.79819846
61	0x3f6d67d4	0.92736554
62	0x3f63cffc	0.88989234
63	0x3f8504ad	1.0392052

res_block1.bn1.bias f4 [64]
0	0xbe8092a2	-0.25111872
1	0xbeb85522	-0.3600245
2	0xbe3c6989	-0.18399633
3	0xbe73a8ef	-0.23794912
4	0xbe7bfc7e	-0.24608037
5	0xbe4ea4ca	-0.2018005
6	0xbe692810	-0.22769189
7	0xbe073400	-0.1320343
8	0xbe8d0548	-0.27543092
9	0xbe0d20a1	-0.13781978
10	0xbea44a01	-0.3208771
11	0xbeb3fe74	-0.3515507
12	0xbe9cbdbc	-0.30613506
13	0xbe4972ac	-0.1967265
14	0xbe6a1eb0	-0.22863269
15	0xbf02b6d4	-0.51060224
16	0xbe85034f	-0.25979087
17	0xbe5f6972	-0.21817568
18	0xbe745f96	-0.23864588
19	0xbea0f381	-0.3143578
20	0xbe918a1e	-0.28425688
21	0xbe331215	-0.17487366
22	0xbdd2c974	-0.102923304
23	0xbe86a79e	-0.26299757
24	0xbe37f00e	-0.17962667
25	0xbe9465cc	-0.28983915
26	0xbe784569	-0.24245228
27	0xbe156183	-0.14587979
28	0xbe499e90	-0.19689393
29	0xbda839d3	-0.08214154
30	0xbe53b53c	-0.20674604
31	0xbea49301	-0.32143405
32	0xbe61b28b	-0.22040765
33	0xbe7ca133	-0.24670868
34	0xbed5ccf1	-0.4175792
35	0x3c0986fd	0.008394
36	0xbdd41d49	-0.10357148
37	0xbe274fa2	-0.16338971
38	0xbe86735a	-0.2625988
39	0xbe58e1df	-0.21179913
40	0xbe4be5da	-0.199119
41	0xbe9ddb8b	-0.3083156
42	0xbec52f25	-0.3851253
43	0xbe7fc1a5	-0.24976213
44	0xbdc54f69	-0.09634287
45	0xbe9f92a1	-0.31166556
46	0xbe705478	-0.23469722
47	0xbf10ba5f	-0.5653438
48	0xbeca00e4	-0.39453804
49	0xbe55de8e	-0.20885679
50	0xbe694727	-0.22781049
51	0xbe27798c	-0.1635496
52	0xbe4f37e2	-0.20236161
53	0xbe6d6991	-0.23184802
54	0xbeb292d6	-0.34877652
55	0xbdc9bc41	-0.0985036
56	0xbe5cc56c	-0.21559685
57	0xbe8034a5	-0.25040165
58	0xbe99eeeb	-0.30065092
59	0xbe9659e0	-0.29365444
60	0xbec78872	-0.38971287
61	0xbea5f570	-0.32413816
62	0xbe750980	-0.23929405
63	0xbe0de39e	-0.1385636

res_block1.bn1.running_mean f4 [64]
0	0xbfe35360	-1.7759819
1	0x3f277fea	0.65429556
2	0xbf9cfaa8	-1.2263994
3	0xbff7220e	-1.9307268
4	0x3ead07af	0.33794925
5	0xbf8170a5	-1.0112501
6	0xbe7773bb	-0.24165241
7	0xbfa42c8e	-1.2826097
8	0xc00d98cc	-2.212451
9	0xbfe9ed3a	-1.8275521
10	0x3f8f084e	1.1174409
11	0xbeafe338	-0.34353042
12	0x3ee64327	0.44973108
13	0xbec2a015	-0.38012758
14	0xbf97d3fe	-1.186157
15	0x3fe070e8	1.7534456
16	0xbfff3b78	-1.9940023
17	0xbf904ea5	-1.1274
18	0xbf2aaa87	-0.66666454
19	0xbfd40792	-1.656481
20	0xbfd55871	-1.6667615
21	0xbfabdcdf	-1.342678
22	0xbf91151a	-1.1334565
23	0xbf141ee7	-0.57859653
24	0xbfffc31f	-1.9981421
25	0xbf75fa3a	-0.9608494
26	0xbf3f307e	-0.7468337
27	0xbfe38544	-1.7775044
28	0xc0144a32	-2.3170285
29	0xbff01a16	-1.8757961
30	0xbfe2b549	-1.7711574
31	0xbe545de5	-0.20738943
32	0xbf6fc8dd	-0.9366587
33	0xbf9d8397	-1.2305783
34	0x3f93ffdf	1.1562461
35	0xbf7153c5	-0.9426845
36	0xbfe8471f	-1.8146704
37	0xbfbb8c90	-1.4652271
38	0xbfa0bc44	-1.2557454
39	0xbfe3a582	-1.7784884
40	0xbf349f15	-0.7055524
41	0xc0261540	-2.595047
42	0x3fb0f657	1.3825177
43	0x3f0dd7c6	0.5540737
44	0xbf6386a5	-0.88877326
45	0xbfba2ce3	-1.4544948
46	0xbf5e23bf	-0.86773294
47	0x3f31db4e	0.6947526
48	0x3fabbc0c	1.3416762
49	0xc0094af4	-2.1451998
50	0xbfa2ad9c	-1.2709231
51	0xbfaf3406	-1.3687751
52	0xbeb94652	-0.36186463
53	0xbe3600e6	-0.1777378
54	0xbfd29409	-1.6451427
55	0xbf39fb1e	-0.726488
56	0xbffee5b8	-1.9913855
57	0xbfe55e9b	-1.7919496
58	0xbff8d4d2	-1.9439948
59	0xbf0291bc	-0.51003623
60	0x3ea65eaa	0.32494098
61	0x3f6d3290	0.9265528
62	0xbe60a273	-0.2193697
63	0xbf7802a8	-0.96879053

res_block1.bn1.running_var f4 [64]
0	0x40af4615	5.477305
1	0x40a464fa	5.1373262
2	0x405fb3d4	3.4953508
3	0x4089a80e	4.3017645
4	0x410ae114	8.679951
5	0x40afaab0	5.489586
6	0x40098a6c	2.1490736
7	0x406c7e77	3.6952188
8	0x41142fb1	9.261643
9	0x40852c7a	4.1616793
10	0x403d39ba	2.9566483
11	0x409c54f6	4.885371
12	0x40788817	3.8833063
13	0x40412da1	3.01841
14	0x40df0663	6.9695296
15	0x4083627d	4.1057725
16	0x40c246fb	6.0711646
17	0x408a4475	4.3208566
18	0x402e8338	2.726759
19	0x40cee4cf	6.4654307
20	0x40479722	3.1185994
21	0x403b0f47	2.9228075
22	0x4021f0e2	2.5303273
23	0x409554a2	4.666581
24	0x40872af1	4.223992
25	0x40262801	2.5961916
26	0x4092b327	4.584369
27	0x407e01a8	3.968851
28	0x40e3b73b	7.116117
29	0x40b8104c	5.7519894
30	0x40d517a7	6.6591372
31	0x40abffc0	5.3749695
32	0x4026493d	2.59822
33	0x4091d2ff	4.5570064
34	0x408fb0cc	4.4903316
35	0x410f6ec7	8.964545
36	0x409ac8c3	4.837007
37	0x4092b0cc	4.5840816
38	0x4086a3db	4.207502
39	0x40c8460f	6.258552
40	0x4041de45	3.0291913
41	0x4129109b	10.566554
42	0x409541df	4.664291
43	0x40cdcfb2	6.4316034
44	0x40ba8975	5.8292794
45	0x40d5ac6d	6.677298
46	0x408a69b7	4.3254046
47	0x4029bc95	2.6521351
48	0x4065062d	3.578502
49	0x40939e98	4.6131096
50	0x40951f89	4.6600995
51	0x4095175f	4.659103
52	0x401cb328	2.4484348
53	0x40311ca7	2.7673738
54	0x40899769	4.2997327
55	0x40fe0884	7.9385395
56	0x40c9b32a	6.3031206
57	0x406c7c08	3.6950703
58	0x40e72160	7.222824
59	0x407ff21c	3.9991522
60	0x405d43f5	3.4572728
61	0x40876276	4.230769
62	0x408b3215	4.3498635
63	0x40730524	3.7971888

res_block1.conv2.weight f4 [64, 64, 3, 3]
0	0xbd424ee3	-0.047438513
1	0xbd3ee629	-0.046606217
2	0xbe3a1037	-0.18170248
3	0xbc081b63	-0.008307311
4	0xbd97b57c	-0.07407662
5	0xbc887d18	-0.016661212
6	0xbe2c68c1	-0.16836835
7	0xbe24e63e	-0.16103455
8	0xbe11c215	-0.14234193
9	0xbde003a3	-0.10938194
10	0x3de02288	0.10944086
11	0x3e1c06a9	0.15236916
12	0x3cc3b69f	0.023890791
13	0xbe141975	-0.14462836
14	0xbb7b0135	-0.003830028
15	0xbdb7acbf	-0.089684956
16	0x3ce97a9f	0.028500853
17	0xbe0730b1	-0.13202168
18	0xbb39bdbf	-0.0028341857
19	0xbd9fb890	-0.077988744
20	0xbd2eaaa5	-0.042643208
21	0x3d57ef92	0.052718706
22	0x3cc9d453	0.024637377
23	0x3e0ef5b1	0.13960911
24	0x3bac625d	0.0052607493
25	0xbddc286f	-0.107498996
26	0xbd990e00	-0.074733734
27	0x3d3dc7e0	0.046333194
28	0xbd741e96	-0.05959948
29	0xbd5b05e9	-0.053472433
30	0xbd3f475f	-0.046698924
31	0xbda34ff8	-0.07974237
32	0xbc104113	-0.008804577
33	0x3cb34abd	0.021886224
34	0x3e661da2	0.22472242
35	0xbe415a2e	-0.18882057
36	0x3c90bdb1	0.017668577
37	0x3dc788fc	0.097429246
38	0xbda78887	-0.081803374
39	0x3cb42490	0.02199009
40	0xbbf9a753	-0.0076188236
41	0xbda38848	-0.07984978
42	0xbe86f815	-0.26361147
43	0xbd5e1c86	-0.05422642
44	0x3ddeea0c	0.10884485
45	0x3e119719	0.14217795
46	0x3e6e3bb2	0.2326496
47	0x3c88c471	0.016695233
48	0xbcfdb8d3	-0.03097192
49	0x3dead160	0.11465716
50	0x3d8aac1d	0.06771109
51	0x3cdd99e2	0.027050916
52	0xbe7a810b	-0.24463288
53	0xbe1e4c95	-0.15458901
54	0x3cdfd34d	0.027322436
55	0x3d65dbe0	0.056117892
56	0xbda2f773	-0.079573534
57	0x3e1536cc	0.14571685
58	0xbd326911	-0.04355723
59	0x3e048078	0.12939632
60	0xbdca06ba	-0.09864564
61	0xbdbf778f	-0.09348976
62	0xbb933623	-0.0044925376
63	0x3d1cc040	0.03826928
64	0xbcca2557	-0.024676008
65	0xbe06322e	-0.1310508
66	0x3d9fadfa	0.07796855
67	0x3e00475d	0.12527223
68	0xbe0ad5ea	-0.13558164
69	0xbdbdb81a	-0.0926363
70	0x3dc552cb	0.09634932
71	0x3e909c21	0.28244117
72	0x3d2682bb	0.040652018
73	0x3df3af31	0.118986495
74	0xbd8d2fb7	-0.068938665
75	0x3dc1b0eb	0.094575725
76	0x3c7c46fe	0.015397785
77	0xbca02c46	-0.019552361
78	0xbc6098bc	-0.01370829
79	0xbd404760	-0.04694307
80	0xbd9c6cc8	-0.07637936
81	0xbe23585a	-0.15951672
82	0x3b477c28	0.0030438993
83	0xbdd9509a	-0.10611077
84	0x3e1a9b28	0.1509825
85	0x3b0d12fd	0.002152621
86	0x3d0d8e22	0.034559377
87	0x3d95525d	0.072911
88	0xbd8a953e	-0.06766747
89	0x3e58b7e3	0.21163897
90	0xbd896f92	-0.067107335
91	0xbb9349e5	-0.004494893
92	0xbdb54b69	-0.08852274
93	0x3c0290d1	0.007969097
94	0xbdee84a1	-0.11646391
95	0x3d807cb7	0.062737875
96	0x3c288c5c	0.0102873705
97	0xbd3c6320	-0.04599297
98	0x3cd37a18	0.025815055
99	0x3d8773a5	0.06613854
100	0xbcd838c2	-0.026394252
101	0x3d0ef9d2	0.034906216
102	0x3d9be75a	0.07612486
103	0xbd40fa2c	-0.047113582
104	0xbc55a3fc	-0.013039585
105	0xbd6733f1	-0.05644602
106	0xbe07d6bd	-0.1326551
107	0xbd7dbe28	-0.061948925
108	0x3d7632dd	0.0601071
109	0xbc68369a	-0.014173174
110	0x3c4a9d97	0.012366674
111	0xbe356ef2	-0.17718104
112	0xbd5b70e2	-0.05357445
113	0xbdbc65ea	-0.09199126
114	0xbda0832c	-0.07837519
115	0xbd9b77d0	-0.07591212
116	0xbd8d2d3c	-0.068933934
117	0xbe18ff66	-0.14941177
118	0xbe018757	-0.12649284
119	0xbd2c8ac5	-0.04212453
120	0x3d9a0167	0.07519799
121	0x3c56cac1	0.013109864
122	0x3dc72581	0.0972395
123	0xbd5e10e3	-0.054215323
124	0xbe1dca93	-0.15409307
125	0xbd5931b0	-0.0530259
126	0x3e3f6a25	0.18692835
127	0x3d473d53	0.048642468
128	0xbe062ab0	-0.13102221
129	0x3de582a6	0.1120656
130	0xbe15ed25	-0.14641245
131	0x3d144431	0.036197845
132	0xbc23b59a	-0.009992028
133	0x3cf15e2a	0.029463846
134	0x3c2bad0f	0.010478272
135	0xbcfaefd1	-0.030631931
136	0x3c0b5143	0.008503261
137	0xbd5e9691	-0.05434281
138	0x3dffd86e	0.124924526
139	0x3ce092bd	0.02741372
140	0xbdc054a4	-0.09391144
141	0xbd66ef78	-0.05638072
142	0xbea139c5	-0.31489387
143	0x3da08321	0.07837511
144	0x3dc9153a	0.09818502
145	0xbdd955be	-0.10612057
146	0x3debf01f	0.11520409
147	0xbdd74584	-0.10511306
148	0xbd52c8c0	-0.05146098
149	0xbc9c9671	-0.019114705
150	0xbcaf7287	-0.021416916
151	0x3cc51915	0.024059812
152	0x3e0a1301	0.13483812
153	0x3bcedc97	0.0063129175
154	0x3d72a205	0.059236545
155	0x3e0a6794	0.13516074
156	0xbe65f49c	-0.22456592
157	0xbd3a75c4	-0.045522466
158	0xbe3ecb37	-0.18632208
159	0x3e379b8b	0.17930429
160	0x3af3d346	0.0018602393
161	0x3d777295	0.06041201
162	0x3e1d7938	0.15378273
163	0x3d80d86f	0.062912814
164	0x3d97d9f3	0.074146174
165	0xbdde6cbe	-0.10860585
166	0xbc2fde7d	-0.010734198
167	0x3c1ac6c0	0.0094468
168	0xbcb5e8ac	-0.022205673
169	0xbe1bebb7	-0.15226637
170	0x3c8ec51b	0.017427972
171	0xbd4930e4	-0.04911889
172	0x3e5ef807	0.21774302
173	0xbdd9d235	-0.10635797
174	0xbdc584a3	-0.09644439
175	0xbde38b31	-0.11110533
176	0x3dd95d26	0.1061347
177	0xbc98f79e	-0.01867276
178	0xbd975e07	-0.07390981
179	0x3dc31593	0.09525599
180	0xbe1197fe	-0.14218137
181	0x3e08030d	0.13282414
182	0x3d85fee9	0.06542761
183	0xbce18416	-0.027528804
184	0xbdad0dfc	-0.08449933
185	0x3df0deb6	0.11761229
186	0x3d99d926	0.07512121
187	0x3df00930	0.117205024
188	0xbe161a00	-0.14658356
189	0x3d1db801	0.038505558
190	0x3d45d02f	0.048294242
191	0x3d78f5b6	0.060781203
192	0xbe8d8a06	-0.27644366
193	0xbe78e194	-0.24304801
194	0x3b6c61fb	0.0036069143
195	0x3c3e1450	0.011601523
196	0x3c305fc9	0.010765024
197	0x3d48c71e	0.049018018
198	0x3cdcc157	0.02694766
199	0x3d7e2583	0.062047493
200	0xbd992047	-0.074768595
201	0xbe152c4c	-0.14567679
202	0xbca46097	-0.020065589
203	0x3d72afd8	0.05924973
204	0xbdd5cdab	-0.10439619
205	0xbe93b181	-0.28846362
206	0x3daede7f	0.085385315
207	0xbe095391	-0.13410784
208	0x3d828557	0.06373089
209	0x3e00135e	0.12507388
210	0xbd19798d	-0.037469435
211	0x3db4e1ff	0.08832168
212	0xbe63f627	-0.22261868
213	0xbd4d156d	-0.05006926
214	0xbe535c49	-0.20640673
215	0xbc28c05f	-0.010299771
216	0x3ce6fdd6	0.02819721
217	0xbcd2b3f4	-0.025720574
218	0xbdca66f6	-0.098829195
219	0xbc268433	-0.010163355
220	0x3ce63b76	0.028104525
221	0xbd98c31f	-0.074590914
222	0xbdf2f062	-0.11862256
223	0x3d597e72	0.053099103
224	0x3dc60c27	0.096702866
225	0xbd147ebc	-0.036253676
226	0x3de9501b	0.11392232
227	0x3e090c3b	0.13383572
228	0xbd3b8d99	-0.045789335
229	0x3d0d81ee	0.03454774
230	0x3ce1274d	0.02748456
231	0xbe0df0a4	-0.13861328
232	0xbca973fc	-0.020685188
233	0x3c8eb23b	0.017418971
234	0x3d31b006	0.04338076
235	0x3cad4eab	0.021155676
236	0xbc6c8d76	-0.014438024
237	0xbdb0ab06	-0.0862637
238	0x3dd69954	0.10478464
239	0xbd77de7d	-0.060514916
240	0xbe1d8f90	-0.15386796
241	0xbd53f0fa	-0.051743485
242	0xbdb801ab	-0.08984693
243	0x3dba5625	0.09098462
244	0xbd43d4e7	-0.04781046
245	0xbd70a872	-0.058754392
246	0xbda879a4	-0.08226326
247	0x3de032ed	0.10947213
248	0x3daff868	0.085923016
249	0xbd9d923d	-0.07693908
250	0xbdb928fb	-0.090410195
251	0x3e28cbd0	0.16483998
252	0x3e065860	0.1311965
253	0x3c9d2164	0.019180961
254	0x3ce79a15	0.028271714
255	0xbe57ee18	-0.2108692

res_block1.conv2.bias f4 [64]
0	0x3d05caba	0.03266404
1	0x3c8118f3	0.015758967
2	0xbd0ee11c	-0.03488265
3	0xbc9cfa8a	-0.019162435
4	0x3cd97dc7	0.026549233
5	0xbcf9eb33	-0.03050766
6	0x3cfa1027	0.03052528
7	0xbcc0d426	-0.02353866
8	0xbce6ef9b	-0.028190425
9	0x3cc3f6fc	0.023921482
10	0x3b2237f3	0.0024752587
11	0x3d1cf746	0.038321756
12	0xbce69223	-0.028145855
13	0x3d0961fd	0.033540715
14	0x3c50f4bf	0.0127536645
15	0xbb997618	-0.0046832673
16	0x3d129331	0.035784904
17	0x3d348594	0.044072703
18	0x3b12fee9	0.002242977
19	0xbc8029e7	-0.01564498
20	0xbcfa23c9	-0.030534642
21	0x3c69bed1	0.014266686
22	0x3c9939ac	0.018704258
23	0xbd09f079	-0.0336766
24	0x3c439710	0.011937872
25	0xb8c0ed7b	-9.1995076e-05
26	0x3c1fded2	0.009757714
27	0x3cb0f6eb	0.021602115
28	0xbc89819f	-0.016785441
29	0xbbaf9861	-0.005358741
30	0xbc051942	-0.008123698
31	0xbb9b7023	-0.0047435923
32	0x3d1ccbc7	0.038280275
33	0x3cd9e033	0.026596164
34	0x3bf0863b	0.0073402203
35	0x3bd594d5	0.0065179863
36	0x3bc4bee4	0.0060042012
37	0xbcfd3e42	-0.030913476
38	0x3cd9cd4c	0.026587151
39	0x3d34e6f2	0.04416556
40	0xbce233fe	-0.027612682
41	0xbd2faf63	-0.04289187
42	0xbd07e96d	-0.033181597
43	0x3b22ce19	0.0024842082
44	0x3c64b192	0.013958352
45	0xbc1cd3a5	-0.009571944
46	0x3b7b3a2b	0.0038334231
47	0xbc193518	-0.009351037
48	0x3d066248	0.032808572
49	0xbd1bbb86	-0.038020633
50	0x3cc0c91b	0.023533395
51	0x3bcc3c1d	0.006232752
52	0x3c9975d3	0.01873294
53	0xbce4f1d5	-0.027947346
54	0x3d3ee9fa	0.046609856
55	0x3cc5c011	0.024139436
56	0x3d3972af	0.045275386
57	0xbb130ec2	-0.0022439216
58	0x3ca949ee	0.020665135
59	0xbc5fb1e3	-0.013653251
60	0xbaaa2898	-0.0012982069
61	0xbc139e75	-0.009009947
62	0x3d017b3b	0.031611662
63	0x3c9dafd2	0.019248877

res_block1.bn2.weight f4 [64]
0	0x3f5924b9	0.8482166
1	0x3f640074	0.8906319
2	0x3f752017	0.9575209
3	0x3f7c82b8	0.9863696
4	0x3f841182	1.0317843
5	0x3f8b37d7	1.0876416
6	0x3f8811af	1.0630397
7	0x3f7e89c1	0.99428946
8	0x3f79c95e	0.97572887
9	0x3f833e8c	1.0253463
10	0x3f62d867	0.88611454
11	0x3f7f8b85	0.99822265
12	0x3f883d68	1.064374
13	0x3f888c8e	1.0667894
14	0x3f80735a	1.0035203
15	0x3f81a836	1.0129459
16	0x3f712c1e	0.9420794
17	0x3f7c62c1	0.98588187
18	0x3f7b8f93	0.9826595
19	0x3f6b461a	0.9190384
20	0x3f8152ae	1.0103357
21	0x3f7e3179	0.9929424
22	0x3f820d95	1.0160395
23	0x3f921388	1.141221
24	0x3f78ecde	0.9723643
25	0x3f6bf34f	0.92168134
26	0x3f67f1ae	0.9060315
27	0x3f801488	1.0006266
28	0x3f606859	0.8765922
29	0x3f820fbe	1.0161054
30	0x3f640154	0.89064527
31	0x3f81b5d4	1.0133615
32	0x3f83305c	1.0249133
33	0x3f7e306e	0.9929265
34	0x3f7c4ca8	0.9855447
35	0x3f7c540f	0.98565763
36	0x3f835905	1.0261542
37	0x3f8fb85e	1.1228139
38	0x3f92c791	1.1467153
39	0x3f82e974	1.0227494
40	0x3f801021	1.0004922
41	0x3f6f8347	0.9355969
42	0x3f639524	0.88899446
43	0x3f873dc3	1.0565723
44	0x3f6c6a68	0.92349863
45	0x3f859af9	1.0437919
46	0x3f7b9599	0.9827514
47	0x3f6cc56f	0.9248876
48	0x3f8a6d7a	1.081466
49	0x3f62f3a9	0.88653046
50	0x3f8761ae	1.0576684
51	0x3f79d13f	0.9758491
52	0x3f6fb9fe	0.93643177
53	0x3f9ca416	1.2237575
54	0x3f6b3a26	0.918856
55	0x3f9296ec	1.1452308
56	0x3f667405	0.9002078
57	0x3f854dd1	1.0414373
58	0x3f81e3a0	1.0147591
59	0x3f82ca72	1.0218031
60	0x3f75068c	0.95713115
61	0x3f67115a	0.9026085
62	0x3f7331b1	0.949977
63	0x3f83d761	1.0300103

res_block1.bn2.bias f4 [64]
0	0xbe947465	-0.28995052
1	0xbe7d81b5	-0.2475651
2	0xbea40a12	-0.32038933
3	0xbdf6a8f6	-0.120439455
4	0xbdfca62c	-0.12336382
5	0xbd33708d	-0.04380851
6	0xbea01856	-0.31268567
7	0xbd80a618	-0.0628168
8	0xbe7803d8	-0.24220216
9	0xbde5cb1f	-0.11220383
10	0xbe78da0b	-0.24301927
11	0xbde8b4ea	-0.113626316
12	0xbe65c7f0	-0.22439551
13	0xbe095ca8	-0.13414252
14	0xbe446c06	-0.19181833
15	0xbe69666f	-0.22792982
16	0xbe827068	-0.25476384
17	0xbe5662a6	-0.20936069
18	0xbe3f62e2	-0.18690065
19	0xbe652c98	-0.22380292
20	0xbe4760d9	-0.19470538
21	0xbe47c75b	-0.19509642
22	0xbe36606b	-0.17810218
23	0xbe27c576	-0.16383919
24	0xbe376755	-0.17910512
25	0xbe5646c0	-0.20925426
26	0xbe398c0d	-0.18119831
27	0xbdd02071	-0.10162438
28	0xbe8eb9b2	-0.2787605
29	0xbe262087	-0.16223346
30	0xbe6f2e7b	-0.23357575
31	0xbe658995	-0.22415765
32	0xbe8f9706	-0.2804491
33	0xbe6d6253	-0.23182039
34	0xbe895382	-0.26821524
35	0xbe2c14e8	-0.1680485
36	0xbe0bf84e	-0.1366894
37	0xbe49301a	-0.19647256
38	0xbe89c6e3	-0.2690955
39	0xbe8f6334	-0.28005373
40	0xbe9cd575	-0.30631605
41	0xbea00fc7	-0.31262037
42	0xbe782083	-0.24231152
43	0xbe108b93	-0.14115743
44	0xbe242dfa	-0.16033164
45	0xbe25151b	-0.16121332
46	0xbe2df226	-0.16986904
47	0xbe210682	-0.15725139
48	0xbe194a06	-0.14969644
49	0xbece5d28	-0.40305448
50	0xbe4323c7	-0.19056617
51	0xbe65e75b	-0.22451536
52	0xbe1c53fc	-0.15266412
53	0xbe1ae4d2	-0.1512635
54	0xbe162562	-0.14662698
55	0xbe4da944	-0.20084101
56	0xbdf79e12	-0.120906964
57	0xbe58b1f2	-0.21161631
58	0xbe8a5a2b	-0.27021918
59	0xbe64fb6b	-0.22361533
60	0xbe610c60	-0.21977377
61	0xbe5e298a	-0.21695533
62	0xbe3a5ee7	-0.18200265
63	0xbe241a00	-0.16025543

res_block1.bn2.running_mean f4 [64]
0	0xbfc32638	-1.5246038
1	0x3f97333a	1.1812508
2	0x40242706	2.5648818
3	0xbfc92b07	-1.5716256
4	0x3eb69d26	0.3566677
5	0xbf224d42	-0.63399136
6	0x3fb75b20	1.4324684
7	0xbfe73f51	-1.8066198
8	0xbfa435c2	-1.2828906
9	0xbfd5fa95	-1.6717097
10	0x3f448fa1	0.7678166
11	0x3f761236	0.9612154
12	0xbe58dc16	-0.21177706
13	0x3f618876	0.8809885
14	0x3f316d9c	0.69307876
15	0xbf8b63f3	-1.0889877
16	0x3f54292a	0.8287531
17	0xbe497185	-0.1967221
18	0xbf72b710	-0.9481058
19	0x3ed0e350	0.40798426
20	0xbe78549e	-0.24251029
21	0x3c168bc5	0.009188597
22	0x3fb90049	1.4453212
23	0xbecf4a2e	-0.40486282
24	0xbe7df50c	-0.24800509
25	0xbfe7b0db	-1.8100847
26	0xbfb03500	-1.3766174
27	0xbf86a5bf	-1.0519332
28	0xbde3a427	-0.11115294
29	0xbee378d1	-0.44428113
30	0x3f215150	0.630147
31	0x3ea37928	0.31928372
32	0xbc82ea18	-0.015980765
33	0x3fa04932	1.2522337
34	0x3f7c128c	0.984658
35	0xbee43b0f	-0.44576308
36	0xbf273988	-0.6532216
37	0x3da82f1b	0.0821211
38	0xbf94caed	-1.1624428
39	0x3f68ea48	0.90982485
40	0x3fccdd7d	1.6005093
41	0xbf1bc978	-0.6085429
42	0x3ed35f93	0.41283855
43	0x3f0943ce	0.53619087
44	0x3a5730e2	0.0008208883
45	0x3fb08130	1.3789425
46	0xbe8ab47e	-0.2709083
47	0xbd16f14b	-0.03685121
48	0xbfeed02e	-1.8657281
49	0x3d980937	0.074236326
50	0xbf670aae	-0.9025067
51	0xbf93fece	-1.1562135
52	0xc00fcda0	-2.2469254
53	0x3fbb53cd	1.4634949
54	0xbf3fb020	-0.7487812
55	0x3fa4e10a	1.2881176
56	0x3f840437	1.0313786
57	0xbf13b9d4	-0.57705426
58	0x3e89aea3	0.2689105
59	0xbf3e5690	-0.74350834
60	0x3e471d73	0.19444828
61	0x3f8a38cc	1.0798583
62	0xbf9f79fc	-1.2459102
63	0xbf040609	-0.5157171

res_block1.bn2.running_var f4 [64]
0	0x4019ac23	2.4011314
1	0x40106bd4	2.2565813
2	0x402a30ed	2.6592362
3	0x4056a824	3.3540125
4	0x400abb6c	2.1676893
5	0x4045a2c8	3.0880604
6	0x4014e151	2.3262522
7	0x40901cab	4.5034995
8	0x4014e7b9	2.3266432
9	0x402ef070	2.7334251
10	0x4026bf1f	2.605415
11	0x4071b66e	3.7767596
12	0x4017b19c	2.3702154
13	0x3fef2d9e	1.8685796
14	0x403f5b72	2.9899564
15	0x4001d223	2.0284507
16	0x400bf7dc	2.1870031
17	0x40383f58	2.8788662
18	0x40479f9b	3.1191165
19	0x3fc4e98e	1.5383775
20	0x40213990	2.5191383
21	0x3fe9828b	1.8242964
22	0x40321586	2.7825637
23	0x401a37f8	2.409666
24	0x40478d51	3.1180003
25	0x4056cbdc	3.3561926
26	0x40783913	3.8784835
27	0x40089920	2.134346
28	0x402adb85	2.6696484
29	0x403d1048	2.9541187
30	0x4015694d	2.334552
31	0x402f5891	2.7397807
32	0x3ffc3a01	1.9705201
33	0x3ff9ccd0	1.9515629
34	0x4028e512	2.6389813
35	0x4000efbc	2.0146322
36	0x4014d62d	2.3255723
37	0x3ff3a565	1.903485
38	0x4035c75e	2.8402934
39	0x4003f70e	2.061954
40	0x402dc9fa	2.7154527
41	0x401bbb52	2.4333081
42	0x3ffe5459	1.9869491
43	0x40086682	2.1312566
44	0x40356261	2.8341296
45	0x405f3c75	3.488065
46	0x402864a5	2.6311429
47	0x401d064b	2.453509
48	0x402c1729	2.6889136
49	0x400ce0b1	2.201214
50	0x4018f90a	2.3902001
51	0x4020cfb8	2.5126781
52	0x406d908e	3.711948
53	0x400172d3	2.0226333
54	0x40696890	3.647007
55	0x3ffb652f	1.9640254
56	0x402cee47	2.7020433
57	0x401841ae	2.3790088
58	0x400e93ef	2.2277792
59	0x401bfa9d	2.4371712
60	0x3ff7b827	1.9353074
61	0x401de350	2.466999
62	0x402552d2	2.58318
63	0x40264792	2.5981183
